…
748/748 [==============================] - 596s 796ms/step - loss: 0.9515 - accuracy: 0.5186 - val_loss: 0.9734 - val_accuracy: 0.4875

Epoch 00024: val_loss did not improve from 0.95209
Epoch 00024: early stopping
$$$$$$$$$$$$$$$$$$$$$$$$$$$$$$$$$$$$$$$$$$$$$$$$$$$$$$
$$$$$$$$$$$$$$$$$$$$$$$$$$$$$$$$$$$$$$$$$$$$$$$$$$$$$$
[92mModel: "CNN3"[0m
[92m_________________________________________________________________[0m
[92mLayer (type)                 Output Shape              Param #   [0m
[92m=================================================================[0m
[92msequential (Sequential)      (None, 512)               365106984 [0m
[92m_________________________________________________________________[0m
[92mdense_2 (Dense)              multiple                  1539      [0m
[92m=================================================================[0m
[92mTotal params: 365,108,523[0m
[92mTrainable params: 365,107,687[0m
[92mNon-trainable params: 836[0m
[92m_________________________________________________________________[0m
None

@LAYER1       @@@@@@@@@@@@@@@@@@@@@@
[94mModel: "sequential"[0m
[94m_________________________________________________________________[0m
[94mLayer (type)                 Output Shape              Param #   [0m
[94m=================================================================[0m
[94mlambda (Lambda)              (None, 75, 75, 2)         0         [0m
[94m_________________________________________________________________[0m
[94mbatch_normalization (BatchNo (None, 75, 75, 2)         8         [0m
[94m_________________________________________________________________[0m
[94mconv2d (Conv2D)              (None, 75, 75, 32)        2336      [0m
[94m_________________________________________________________________[0m
[94mbatch_normalization_1 (Batch (None, 75, 75, 32)        128       [0m
[94m_________________________________________________________________[0m
[94mconv2d_1 (Conv2D)            (None, 75, 75, 128)       65664     [0m
[94m_________________________________________________________________[0m
[94mmax_pooling2d (MaxPooling2D) (None, 37, 37, 128)       0         [0m
[94m_________________________________________________________________[0m
[94mbatch_normalization_2 (Batch (None, 37, 37, 128)       512       [0m
[94m_________________________________________________________________[0m
[94mconv2d_2 (Conv2D)            (None, 37, 37, 256)       1179904   [0m
[94m_________________________________________________________________[0m
[94mbatch_normalization_3 (Batch (None, 37, 37, 256)       1024      [0m
[94m_________________________________________________________________[0m
[94mconv2d_3 (Conv2D)            (None, 37, 37, 512)       4719104   [0m
[94m_________________________________________________________________[0m
[94mflatten (Flatten)            (None, 700928)            0         [0m
[94m_________________________________________________________________[0m
[94mdense (Dense)                (None, 512)               358875648 [0m
[94m_________________________________________________________________[0m
[94mdropout (Dropout)            (None, 512)               0         [0m
[94m_________________________________________________________________[0m
[94mdense_1 (Dense)              (None, 512)               262656    [0m
[94m_________________________________________________________________[0m
[94mdropout_1 (Dropout)          (None, 512)               0         [0m
[94m=================================================================[0m
[94mTotal params: 365,106,984[0m
[94mTrainable params: 365,106,148[0m
[94mNon-trainable params: 836[0m
[94m_________________________________________________________________[0m
None
[92m%Optimizer:
[0m {'name': 'Adam', 'learning_rate': 1e-04, 'decay': 0.0, 'beta_1': 0.9, 'beta_2': 0.999, 'epsilon': 1e-07, 'amsgrad': False}
…
