…
83/83 [==============================] - ETA: 0s - loss: 1.4412 - accuracy: 0.4749
Epoch 33: val_loss did not improve from 1.56714
83/83 [==============================] - 91s 1s/step - loss: 1.4412 - accuracy: 0.4749 - val_loss: 1.6113 - val_accuracy: 0.3971
Epoch 33: early stopping
$$$$$$$$$$$$$$$$$$$$$$$$$$$$$$$$$$$$$$$$$$$$$$$$$$$$$$
$$$$$$$$$$$$$$$$$$$$$$$$$$$$$$$$$$$$$$$$$$$$$$$$$$$$$$
[92mModel: "CNN"[0m
[92m_________________________________________________________________[0m
[92m Layer (type)                Output Shape              Param #   [0m
[92m=================================================================[0m
[92m sequential (Sequential)     (None, 512)               12127912  [0m
[92m                                                                 [0m
[92m dense_2 (Dense)             multiple                  3078      [0m
[92m                                                                 [0m
[92m=================================================================[0m
[92mTotal params: 12,130,990[0m
[92mTrainable params: 12,130,986[0m
[92mNon-trainable params: 4[0m
[92m_________________________________________________________________[0m
None

@LAYER1       @@@@@@@@@@@@@@@@@@@@@@
[94mModel: "sequential"[0m
[94m_________________________________________________________________[0m
[94m Layer (type)                Output Shape              Param #   [0m
[94m=================================================================[0m
[94m lambda (Lambda)             (None, 75, 75, 2)         0         [0m
[94m                                                                 [0m
[94m batch_normalization (BatchN  (None, 75, 75, 2)        8         [0m
[94m ormalization)                                                   [0m
[94m                                                                 [0m
[94m conv2d (Conv2D)             (None, 75, 75, 32)        2336      [0m
[94m                                                                 [0m
[94m max_pooling2d (MaxPooling2D  (None, 37, 37, 32)       0         [0m
[94m )                                                               [0m
[94m                                                                 [0m
[94m conv2d_1 (Conv2D)           (None, 37, 37, 128)       65664     [0m
[94m                                                                 [0m
[94m max_pooling2d_1 (MaxPooling  (None, 18, 18, 128)      0         [0m
[94m 2D)                                                             [0m
[94m                                                                 [0m
[94m conv2d_2 (Conv2D)           (None, 18, 18, 256)       1179904   [0m
[94m                                                                 [0m
[94m max_pooling2d_2 (MaxPooling  (None, 9, 9, 256)        0         [0m
[94m 2D)                                                             [0m
[94m                                                                 [0m
[94m dropout (Dropout)           (None, 9, 9, 256)         0         [0m
[94m                                                                 [0m
[94m flatten (Flatten)           (None, 20736)             0         [0m
[94m                                                                 [0m
[94m dense (Dense)               (None, 512)               10617344  [0m
[94m                                                                 [0m
[94m dropout_1 (Dropout)         (None, 512)               0         [0m
[94m                                                                 [0m
[94m dense_1 (Dense)             (None, 512)               262656    [0m
[94m                                                                 [0m
[94m dropout_2 (Dropout)         (None, 512)               0         [0m
[94m                                                                 [0m
[94m=================================================================[0m
[94mTotal params: 12,127,912[0m
[94mTrainable params: 12,127,908[0m
[94mNon-trainable params: 4[0m
[94m_________________________________________________________________[0m
None
[92m%Optimizer:
[0m {'name': 'Adam', 'weight_decay': None, 'clipnorm': None, 'global_clipnorm': None, 'clipvalue': None, 'use_ema': False, 'ema_momentum': 0.99, 'ema_overwrite_frequency': None, 'jit_compile': False, 'is_legacy_optimizer': False, 'learning_rate': 1e-04, 'beta_1': 0.9, 'beta_2': 0.999, 'epsilon': 1e-07, 'amsgrad': False}
…
82/82 [==============================] - 67s 813ms/step - loss: 1.4236 - accuracy: 0.5049 - val_loss: 1.6562 - val_accuracy: 0.4054

Epoch 00030: val_loss did not improve from 1.54816
Epoch 00030: early stopping
$$$$$$$$$$$$$$$$$$$$$$$$$$$$$$$$$$$$$$$$$$$$$$$$$$$$$$
$$$$$$$$$$$$$$$$$$$$$$$$$$$$$$$$$$$$$$$$$$$$$$$$$$$$$$
[92mModel: "CNN3"[0m
[92m_________________________________________________________________[0m
[92mLayer (type)                 Output Shape              Param #   [0m
[92m=================================================================[0m
[92msequential (Sequential)      (None, 512)               365105320 [0m
[92m_________________________________________________________________[0m
[92mdense_2 (Dense)              multiple                  3078      [0m
[92m=================================================================[0m
[92mTotal params: 365,108,398[0m
[92mTrainable params: 365,108,394[0m
[92mNon-trainable params: 4[0m
[92m_________________________________________________________________[0m
None

@LAYER1       @@@@@@@@@@@@@@@@@@@@@@
[94mModel: "sequential"[0m
[94m_________________________________________________________________[0m
[94mLayer (type)                 Output Shape              Param #   [0m
[94m=================================================================[0m
[94mlambda (Lambda)              (None, 75, 75, 2)         0         [0m
[94m_________________________________________________________________[0m
[94mbatch_normalization (BatchNo (None, 75, 75, 2)         8         [0m
[94m_________________________________________________________________[0m
[94mconv2d (Conv2D)              (None, 75, 75, 32)        2336      [0m
[94m_________________________________________________________________[0m
[94mconv2d_1 (Conv2D)            (None, 75, 75, 128)       65664     [0m
[94m_________________________________________________________________[0m
[94mmax_pooling2d (MaxPooling2D) (None, 37, 37, 128)       0         [0m
[94m_________________________________________________________________[0m
[94mconv2d_2 (Conv2D)            (None, 37, 37, 256)       1179904   [0m
[94m_________________________________________________________________[0m
[94mconv2d_3 (Conv2D)            (None, 37, 37, 512)       4719104   [0m
[94m_________________________________________________________________[0m
[94mflatten (Flatten)            (None, 700928)            0         [0m
[94m_________________________________________________________________[0m
[94mdense (Dense)                (None, 512)               358875648 [0m
[94m_________________________________________________________________[0m
[94mdropout (Dropout)            (None, 512)               0         [0m
[94m_________________________________________________________________[0m
[94mdense_1 (Dense)              (None, 512)               262656    [0m
[94m_________________________________________________________________[0m
[94mdropout_1 (Dropout)          (None, 512)               0         [0m
[94m=================================================================[0m
[94mTotal params: 365,105,320[0m
[94mTrainable params: 365,105,316[0m
[94mNon-trainable params: 4[0m
[94m_________________________________________________________________[0m
None
[92m%Optimizer:
[0m {'name': 'Adam', 'learning_rate': 1e-04, 'decay': 0.0, 'beta_1': 0.9, 'beta_2': 0.999, 'epsilon': 1e-07, 'amsgrad': False}
…
82/82 [==============================] - 228s 3s/step - loss: 1.4647 - accuracy: 0.5501 - val_loss: 1.9427 - val_accuracy: 0.3588

Epoch 00031: val_loss did not improve from 1.62190
Epoch 00031: early stopping
$$$$$$$$$$$$$$$$$$$$$$$$$$$$$$$$$$$$$$$$$$$$$$$$$$$$$$
$$$$$$$$$$$$$$$$$$$$$$$$$$$$$$$$$$$$$$$$$$$$$$$$$$$$$$
[92mModel: "CNN3"[0m
[92m_________________________________________________________________[0m
[92mLayer (type)                 Output Shape              Param #   [0m
[92m=================================================================[0m
[92msequential (Sequential)      (None, 512)               1480790184[0m
[92m_________________________________________________________________[0m
[92mdense_2 (Dense)              multiple                  3078      [0m
[92m=================================================================[0m
[92mTotal params: 1,480,793,262[0m
[92mTrainable params: 1,480,793,258[0m
[92mNon-trainable params: 4[0m
[92m_________________________________________________________________[0m
None

@LAYER1       @@@@@@@@@@@@@@@@@@@@@@
[94mModel: "sequential"[0m
[94m_________________________________________________________________[0m
[94mLayer (type)                 Output Shape              Param #   [0m
[94m=================================================================[0m
[94mlambda (Lambda)              (None, 75, 75, 2)         0         [0m
[94m_________________________________________________________________[0m
[94mbatch_normalization (BatchNo (None, 75, 75, 2)         8         [0m
[94m_________________________________________________________________[0m
[94mconv2d (Conv2D)              (None, 75, 75, 32)        2336      [0m
[94m_________________________________________________________________[0m
[94mconv2d_1 (Conv2D)            (None, 75, 75, 128)       65664     [0m
[94m_________________________________________________________________[0m
[94mconv2d_2 (Conv2D)            (None, 75, 75, 256)       1179904   [0m
[94m_________________________________________________________________[0m
[94mconv2d_3 (Conv2D)            (None, 75, 75, 512)       4719104   [0m
[94m_________________________________________________________________[0m
[94mflatten (Flatten)            (None, 2880000)           0         [0m
[94m_________________________________________________________________[0m
[94mdense (Dense)                (None, 512)               1474560512[0m
[94m_________________________________________________________________[0m
[94mdropout (Dropout)            (None, 512)               0         [0m
[94m_________________________________________________________________[0m
[94mdense_1 (Dense)              (None, 512)               262656    [0m
[94m_________________________________________________________________[0m
[94mdropout_1 (Dropout)          (None, 512)               0         [0m
[94m=================================================================[0m
[94mTotal params: 1,480,790,184[0m
[94mTrainable params: 1,480,790,180[0m
[94mNon-trainable params: 4[0m
[94m_________________________________________________________________[0m
None
[92m%Optimizer:
[0m {'name': 'Adam', 'learning_rate': 1e-04, 'decay': 0.0, 'beta_1': 0.9, 'beta_2': 0.999, 'epsilon': 1e-07, 'amsgrad': False}
…
