

$$$$$$$$$$$$$$$$$$$$$$$$$$$$$$$$$$$$$$$$$
New Run
Current date and time = 2023-02-25 22:15:55.586957
$$$$$$$$$$$$$$$$$$$$$$$$$$$$$$$$$$$$$$$$$
CNN2_torch(
  (h2ptjl): Sequential(
    (0): BatchNorm2d(2, eps=1e-05, momentum=0.1, affine=True, track_running_stats=True)
    (1): Conv2d(2, 32, kernel_size=(6, 6), stride=(1, 1), padding=same)
    (2): ReLU()
    (3): MaxPool2d(kernel_size=2, stride=2, padding=0, dilation=1, ceil_mode=False)
    (4): Sequential(
      (0): ResidualBlock(
        (left): Sequential(
          (0): Conv2d(32, 128, kernel_size=(6, 6), stride=(1, 1), padding=same)
          (1): ReLU(inplace=True)
          (2): Conv2d(128, 128, kernel_size=(6, 6), stride=(1, 1), padding=same)
        )
        (shortcut): Sequential(
          (0): Conv2d(32, 128, kernel_size=(1, 1), stride=(1, 1), padding=same)
        )
      )
      (1): ResidualBlock(
        (left): Sequential(
          (0): Conv2d(128, 128, kernel_size=(6, 6), stride=(1, 1), padding=same)
          (1): ReLU(inplace=True)
          (2): Conv2d(128, 128, kernel_size=(6, 6), stride=(1, 1), padding=same)
        )
        (shortcut): Sequential()
      )
    )
    (5): MaxPool2d(kernel_size=2, stride=2, padding=0, dilation=1, ceil_mode=False)
    (6): Sequential(
      (0): ResidualBlock(
        (left): Sequential(
          (0): Conv2d(128, 256, kernel_size=(6, 6), stride=(1, 1), padding=same)
          (1): ReLU(inplace=True)
          (2): Conv2d(256, 256, kernel_size=(6, 6), stride=(1, 1), padding=same)
        )
        (shortcut): Sequential(
          (0): Conv2d(128, 256, kernel_size=(1, 1), stride=(1, 1), padding=same)
        )
      )
      (1): ResidualBlock(
        (left): Sequential(
          (0): Conv2d(256, 256, kernel_size=(6, 6), stride=(1, 1), padding=same)
          (1): ReLU(inplace=True)
          (2): Conv2d(256, 256, kernel_size=(6, 6), stride=(1, 1), padding=same)
        )
        (shortcut): Sequential()
      )
    )
    (7): MaxPool2d(kernel_size=2, stride=2, padding=0, dilation=1, ceil_mode=False)
    (8): Dropout(p=0.1, inplace=False)
  )
  (linear1): Linear(in_features=20736, out_features=512, bias=True)
  (linear2): Linear(in_features=512, out_features=32, bias=True)
  (linear3): Linear(in_features=512, out_features=128, bias=True)
  (linear4): Linear(in_features=128, out_features=32, bias=True)
  (_output): Linear(in_features=32, out_features=7, bias=True)
)
Send the model to cuda
VALIDATION:   kappa = 1.05000     | val loss= 1.699, val acc= 26.34% |
Epoch 1: val_loss improved from inf to 1.6990, saving model to/home/samhuang/ML/best_model/best_model_septenary_P_CNN2_kappa0.23022_fiximag/Try/0
VALIDATION:   kappa = 1.05000     | val loss= 1.711, val acc= 27.28% |
Epoch   2: val_loss did not improve from 1.6990. Performance did not improve for  1 epoch(s)
…
