…
83/83 [==============================] - 2s 29ms/step - loss: 1.5379 - accuracy: 0.3833 - val_loss: 1.5638 - val_accuracy: 0.3661

Epoch 00052: val_loss did not improve from 1.56299
Epoch 00052: early stopping
$$$$$$$$$$$$$$$$$$$$$$$$$$$$$$$$$$$$$$$$$$$$$$$$$$$$$$
$$$$$$$$$$$$$$$$$$$$$$$$$$$$$$$$$$$$$$$$$$$$$$$$$$$$$$
[92mModel: "CNN_4jet"[0m
[92m_________________________________________________________________[0m
[92mLayer (type)                 Output Shape              Param #   [0m
[92m=================================================================[0m
[92msequential (Sequential)      (None, 512)               1642152   [0m
[92m_________________________________________________________________[0m
[92msequential_1 (Sequential)    (None, 512)               1642152   [0m
[92m_________________________________________________________________[0m
[92msequential_2 (Sequential)    (None, 512)               1642152   [0m
[92m_________________________________________________________________[0m
[92msequential_3 (Sequential)    (None, 512)               1642152   [0m
[92m_________________________________________________________________[0m
[92mdense_8 (Dense)              multiple                  12294     [0m
[92m=================================================================[0m
[92mTotal params: 6,580,902[0m
[92mTrainable params: 6,580,886[0m
[92mNon-trainable params: 16[0m
[92m_________________________________________________________________[0m
None

@LAYER1       @@@@@@@@@@@@@@@@@@@@@@
[94mModel: "sequential"[0m
[94m_________________________________________________________________[0m
[94mLayer (type)                 Output Shape              Param #   [0m
[94m=================================================================[0m
[94mlambda (Lambda)              (None, 15, 15, 2)         0         [0m
[94m_________________________________________________________________[0m
[94mbatch_normalization (BatchNo (None, 15, 15, 2)         8         [0m
[94m_________________________________________________________________[0m
[94mconv2d (Conv2D)              (None, 15, 15, 32)        2336      [0m
[94m_________________________________________________________________[0m
[94mmax_pooling2d (MaxPooling2D) (None, 7, 7, 32)          0         [0m
[94m_________________________________________________________________[0m
[94mconv2d_1 (Conv2D)            (None, 7, 7, 128)         65664     [0m
[94m_________________________________________________________________[0m
[94mmax_pooling2d_1 (MaxPooling2 (None, 3, 3, 128)         0         [0m
[94m_________________________________________________________________[0m
[94mconv2d_2 (Conv2D)            (None, 3, 3, 256)         1179904   [0m
[94m_________________________________________________________________[0m
[94mmax_pooling2d_2 (MaxPooling2 (None, 1, 1, 256)         0         [0m
[94m_________________________________________________________________[0m
[94mdropout (Dropout)            (None, 1, 1, 256)         0         [0m
[94m_________________________________________________________________[0m
[94mflatten (Flatten)            (None, 256)               0         [0m
[94m_________________________________________________________________[0m
[94mdense (Dense)                (None, 512)               131584    [0m
[94m_________________________________________________________________[0m
[94mdropout_1 (Dropout)          (None, 512)               0         [0m
[94m_________________________________________________________________[0m
[94mdense_1 (Dense)              (None, 512)               262656    [0m
[94m_________________________________________________________________[0m
[94mdropout_2 (Dropout)          (None, 512)               0         [0m
[94m=================================================================[0m
[94mTotal params: 1,642,152[0m
[94mTrainable params: 1,642,148[0m
[94mNon-trainable params: 4[0m
[94m_________________________________________________________________[0m
None
[92m%Optimizer:
[0m {'name': 'Adam', 'learning_rate': 1e-04, 'decay': 0.0, 'beta_1': 0.9, 'beta_2': 0.999, 'epsilon': 1e-07, 'amsgrad': False}
…
9776482582}}, 'bias_regularizer': None, 'activity_regularizer': None, 'kernel_constraint': None, 'bias_constraint': None}}, {'class_name': 'Dropout', 'config': {'name': 'dropout_2', 'trainable': True, 'dtype': 'float32', 'rate': 0.5, 'noise_shape': None, 'seed': None}}]}

@LAYER2       @@@@@@@@@@@@@@@@@@@@@@
[94mModel: "sequential_1"[0m
[94m_________________________________________________________________[0m
[94mLayer (type)                 Output Shape              Param #   [0m
[94m=================================================================[0m
[94mlambda_1 (Lambda)            (None, 15, 15, 2)         0         [0m
[94m_________________________________________________________________[0m
[94mbatch_normalization_1 (Batch (None, 15, 15, 2)         8         [0m
[94m_________________________________________________________________[0m
[94mconv2d_3 (Conv2D)            (None, 15, 15, 32)        2336      [0m
[94m_________________________________________________________________[0m
[94mmax_pooling2d_3 (MaxPooling2 (None, 7, 7, 32)          0         [0m
[94m_________________________________________________________________[0m
[94mconv2d_4 (Conv2D)            (None, 7, 7, 128)         65664     [0m
[94m_________________________________________________________________[0m
[94mmax_pooling2d_4 (MaxPooling2 (None, 3, 3, 128)         0         [0m
[94m_________________________________________________________________[0m
[94mconv2d_5 (Conv2D)            (None, 3, 3, 256)         1179904   [0m
[94m_________________________________________________________________[0m
[94mmax_pooling2d_5 (MaxPooling2 (None, 1, 1, 256)         0         [0m
[94m_________________________________________________________________[0m
[94mdropout_3 (Dropout)          (None, 1, 1, 256)         0         [0m
[94m_________________________________________________________________[0m
[94mflatten_1 (Flatten)          (None, 256)               0         [0m
[94m_________________________________________________________________[0m
[94mdense_2 (Dense)              (None, 512)               131584    [0m
[94m_________________________________________________________________[0m
[94mdropout_4 (Dropout)          (None, 512)               0         [0m
[94m_________________________________________________________________[0m
[94mdense_3 (Dense)              (None, 512)               262656    [0m
[94m_________________________________________________________________[0m
[94mdropout_5 (Dropout)          (None, 512)               0         [0m
[94m=================================================================[0m
[94mTotal params: 1,642,152[0m
[94mTrainable params: 1,642,148[0m
[94mNon-trainable params: 4[0m
[94m_________________________________________________________________[0m
None
[92m%Optimizer:
[0m {'name': 'Adam', 'learning_rate': 1e-04, 'decay': 0.0, 'beta_1': 0.9, 'beta_2': 0.999, 'epsilon': 1e-07, 'amsgrad': False}
…
