…
83/83 [==============================] - 1s 12ms/step - loss: 1.5755 - accuracy: 0.3420 - val_loss: 1.6587 - val_accuracy: 0.2992

Epoch 00034: val_loss did not improve from 1.63939
Epoch 00034: early stopping
$$$$$$$$$$$$$$$$$$$$$$$$$$$$$$$$$$$$$$$$$$$$$$$$$$$$$$
$$$$$$$$$$$$$$$$$$$$$$$$$$$$$$$$$$$$$$$$$$$$$$$$$$$$$$
[92mModel: "CNN"[0m
[92m_________________________________________________________________[0m
[92mLayer (type)                 Output Shape              Param #   [0m
[92m=================================================================[0m
[92msequential (Sequential)      (None, 512)               1642152   [0m
[92m_________________________________________________________________[0m
[92mdense_2 (Dense)              multiple                  3078      [0m
[92m=================================================================[0m
[92mTotal params: 1,645,230[0m
[92mTrainable params: 1,645,226[0m
[92mNon-trainable params: 4[0m
[92m_________________________________________________________________[0m
None

@LAYER1       @@@@@@@@@@@@@@@@@@@@@@
[94mModel: "sequential"[0m
[94m_________________________________________________________________[0m
[94mLayer (type)                 Output Shape              Param #   [0m
[94m=================================================================[0m
[94mlambda (Lambda)              (None, 15, 15, 2)         0         [0m
[94m_________________________________________________________________[0m
[94mbatch_normalization (BatchNo (None, 15, 15, 2)         8         [0m
[94m_________________________________________________________________[0m
[94mconv2d (Conv2D)              (None, 15, 15, 32)        2336      [0m
[94m_________________________________________________________________[0m
[94mmax_pooling2d (MaxPooling2D) (None, 7, 7, 32)          0         [0m
[94m_________________________________________________________________[0m
[94mconv2d_1 (Conv2D)            (None, 7, 7, 128)         65664     [0m
[94m_________________________________________________________________[0m
[94mmax_pooling2d_1 (MaxPooling2 (None, 3, 3, 128)         0         [0m
[94m_________________________________________________________________[0m
[94mconv2d_2 (Conv2D)            (None, 3, 3, 256)         1179904   [0m
[94m_________________________________________________________________[0m
[94mmax_pooling2d_2 (MaxPooling2 (None, 1, 1, 256)         0         [0m
[94m_________________________________________________________________[0m
[94mdropout (Dropout)            (None, 1, 1, 256)         0         [0m
[94m_________________________________________________________________[0m
[94mflatten (Flatten)            (None, 256)               0         [0m
[94m_________________________________________________________________[0m
[94mdense (Dense)                (None, 512)               131584    [0m
[94m_________________________________________________________________[0m
[94mdropout_1 (Dropout)          (None, 512)               0         [0m
[94m_________________________________________________________________[0m
[94mdense_1 (Dense)              (None, 512)               262656    [0m
[94m_________________________________________________________________[0m
[94mdropout_2 (Dropout)          (None, 512)               0         [0m
[94m=================================================================[0m
[94mTotal params: 1,642,152[0m
[94mTrainable params: 1,642,148[0m
[94mNon-trainable params: 4[0m
[94m_________________________________________________________________[0m
None
[92m%Optimizer:
[0m {'name': 'Adam', 'learning_rate': 1e-04, 'decay': 0.0, 'beta_1': 0.9, 'beta_2': 0.999, 'epsilon': 1e-07, 'amsgrad': False}
…
