…
83/83 [==============================] - 7s 84ms/step - loss: 1.2806 - accuracy: 0.5482 - val_loss: 1.6704 - val_accuracy: 0.3830

Epoch 00036: val_loss did not improve from 1.51480
Epoch 00036: early stopping
$$$$$$$$$$$$$$$$$$$$$$$$$$$$$$$$$$$$$$$$$$$$$$$$$$$$$$
$$$$$$$$$$$$$$$$$$$$$$$$$$$$$$$$$$$$$$$$$$$$$$$$$$$$$$
[92mModel: "CNN3"[0m
[92m_________________________________________________________________[0m
[92mLayer (type)                 Output Shape              Param #   [0m
[92m=================================================================[0m
[92msequential (Sequential)      (None, 512)               10687144  [0m
[92m_________________________________________________________________[0m
[92mdense_3 (Dense)              multiple                  3078      [0m
[92m=================================================================[0m
[92mTotal params: 10,690,222[0m
[92mTrainable params: 10,690,218[0m
[92mNon-trainable params: 4[0m
[92m_________________________________________________________________[0m
None

@LAYER1       @@@@@@@@@@@@@@@@@@@@@@
[94mModel: "sequential"[0m
[94m_________________________________________________________________[0m
[94mLayer (type)                 Output Shape              Param #   [0m
[94m=================================================================[0m
[94mlambda (Lambda)              (None, 75, 75, 2)         0         [0m
[94m_________________________________________________________________[0m
[94mbatch_normalization (BatchNo (None, 75, 75, 2)         8         [0m
[94m_________________________________________________________________[0m
[94mconv2d (Conv2D)              (None, 75, 75, 32)        2336      [0m
[94m_________________________________________________________________[0m
[94mmax_pooling2d (MaxPooling2D) (None, 37, 37, 32)        0         [0m
[94m_________________________________________________________________[0m
[94mconv2d_1 (Conv2D)            (None, 37, 37, 128)       65664     [0m
[94m_________________________________________________________________[0m
[94mmax_pooling2d_1 (MaxPooling2 (None, 18, 18, 128)       0         [0m
[94m_________________________________________________________________[0m
[94mconv2d_2 (Conv2D)            (None, 18, 18, 256)       1179904   [0m
[94m_________________________________________________________________[0m
[94mmax_pooling2d_2 (MaxPooling2 (None, 9, 9, 256)         0         [0m
[94m_________________________________________________________________[0m
[94mconv2d_3 (Conv2D)            (None, 9, 9, 512)         4719104   [0m
[94m_________________________________________________________________[0m
[94mmax_pooling2d_3 (MaxPooling2 (None, 4, 4, 512)         0         [0m
[94m_________________________________________________________________[0m
[94mdropout (Dropout)            (None, 4, 4, 512)         0         [0m
[94m_________________________________________________________________[0m
[94mflatten (Flatten)            (None, 8192)              0         [0m
[94m_________________________________________________________________[0m
[94mdense (Dense)                (None, 512)               4194816   [0m
[94m_________________________________________________________________[0m
[94mdropout_1 (Dropout)          (None, 512)               0         [0m
[94m_________________________________________________________________[0m
[94mdense_1 (Dense)              (None, 512)               262656    [0m
[94m_________________________________________________________________[0m
[94mdropout_2 (Dropout)          (None, 512)               0         [0m
[94m_________________________________________________________________[0m
[94mdense_2 (Dense)              (None, 512)               262656    [0m
[94m_________________________________________________________________[0m
[94mdropout_3 (Dropout)          (None, 512)               0         [0m
[94m=================================================================[0m
[94mTotal params: 10,687,144[0m
[94mTrainable params: 10,687,140[0m
[94mNon-trainable params: 4[0m
[94m_________________________________________________________________[0m
None
[92m%Optimizer:
[0m {'name': 'Adam', 'learning_rate': 1e-04, 'decay': 0.0, 'beta_1': 0.9, 'beta_2': 0.999, 'epsilon': 1e-07, 'amsgrad': False}
…
