

$$$$$$$$$$$$$$$$$$$$$$$$$$$$$$$$$$$$$$$$$
New Run
Current date and time = 2023-01-12 15:39:30.759672
$$$$$$$$$$$$$$$$$$$$$$$$$$$$$$$$$$$$$$$$$
CNN2_torch(
  (h2ptjl): Sequential(
    (0): BatchNorm2d(2, eps=1e-05, momentum=0.1, affine=True, track_running_stats=True)
    (1): Conv2d(2, 32, kernel_size=(6, 6), stride=(1, 1), padding=same)
    (2): ReLU()
    (3): MaxPool2d(kernel_size=2, stride=2, padding=0, dilation=1, ceil_mode=False)
    (4): Sequential(
      (0): ResidualBlock(
        (left): Sequential(
          (0): Conv2d(32, 128, kernel_size=(6, 6), stride=(1, 1), padding=same)
          (1): ReLU(inplace=True)
          (2): Conv2d(128, 128, kernel_size=(6, 6), stride=(1, 1), padding=same)
        )
        (shortcut): Sequential(
          (0): Conv2d(32, 128, kernel_size=(1, 1), stride=(1, 1), padding=same)
        )
      )
      (1): ResidualBlock(
        (left): Sequential(
          (0): Conv2d(128, 128, kernel_size=(6, 6), stride=(1, 1), padding=same)
          (1): ReLU(inplace=True)
          (2): Conv2d(128, 128, kernel_size=(6, 6), stride=(1, 1), padding=same)
        )
        (shortcut): Sequential()
      )
    )
    (5): MaxPool2d(kernel_size=2, stride=2, padding=0, dilation=1, ceil_mode=False)
    (6): Sequential(
      (0): ResidualBlock(
        (left): Sequential(
          (0): Conv2d(128, 256, kernel_size=(6, 6), stride=(1, 1), padding=same)
          (1): ReLU(inplace=True)
          (2): Conv2d(256, 256, kernel_size=(6, 6), stride=(1, 1), padding=same)
        )
        (shortcut): Sequential(
          (0): Conv2d(128, 256, kernel_size=(1, 1), stride=(1, 1), padding=same)
        )
      )
      (1): ResidualBlock(
        (left): Sequential(
          (0): Conv2d(256, 256, kernel_size=(6, 6), stride=(1, 1), padding=same)
          (1): ReLU(inplace=True)
          (2): Conv2d(256, 256, kernel_size=(6, 6), stride=(1, 1), padding=same)
        )
        (shortcut): Sequential()
      )
    )
    (7): MaxPool2d(kernel_size=2, stride=2, padding=0, dilation=1, ceil_mode=False)
    (8): Dropout(p=0.1, inplace=False)
  )
  (linear1): Linear(in_features=20736, out_features=512, bias=True)
  (linear2): Linear(in_features=512, out_features=32, bias=True)
  (linear3): Linear(in_features=512, out_features=128, bias=True)
  (linear4): Linear(in_features=128, out_features=32, bias=True)
  (_output): Linear(in_features=32, out_features=6, bias=True)
)
Send the model to cuda
VALIDATION:   kappa = 1.05000     | val loss= 1.799, val acc= 19.48% |
Epoch 1: val_loss improved from inf to 1.7994, saving model to/home/samhuang/ML/best_model/best_model_ternary_CNN2_kappa0.23_fiximag/Try/0
VALIDATION:   kappa = 1.05000     | val loss= 1.687, val acc= 25.30% |
Epoch 2: val_loss improved from 1.7994 to 1.6871, saving model to/home/samhuang/ML/best_model/best_model_ternary_CNN2_kappa0.23_fiximag/Try/0
…
$W^+/W^-$ (auc = 67.85 +- 1.1248 %)
$W^+/Z$ (auc = 65.29 +- 0.7494 %)
$W^-/Z$ (auc = 66.26 +- 0.2384 %)
N of classes 6
$W^+/W^+$ (acc = 43.71 +- 2.4970 %
$W^-/W^-$ (acc = 44.44 +- 2.5408 %
$Z/Z$ (acc = 41.79 +- 3.4637 %
$W^+/W^-$ (acc = 31.73 +- 1.3113 %
$W^+/Z$ (acc = 29.05 +- 1.4156 %
$W^-/Z$ (acc = 29.51 +- 0.9801 %
The summarized testing accuracy = 37.01 +- 0.9437 %, with the loss = 2.7921 +- 0.518863
Finished Training


$$$$$$$$$$$$$$$$$$$$$$$$$$$$$$$$$$$$$$$$$
New Run
Current date and time = 2023-01-30 16:45:58.042385
$$$$$$$$$$$$$$$$$$$$$$$$$$$$$$$$$$$$$$$$$
CNN2_torch(
  (h2ptjl): Sequential(
    (0): BatchNorm2d(2, eps=1e-05, momentum=0.1, affine=True, track_running_stats=True)
    (1): Conv2d(2, 32, kernel_size=(6, 6), stride=(1, 1), padding=same)
    (2): ReLU()
    (3): MaxPool2d(kernel_size=2, stride=2, padding=0, dilation=1, ceil_mode=False)
    (4): Sequential(
      (0): ResidualBlock(
        (left): Sequential(
          (0): Conv2d(32, 128, kernel_size=(6, 6), stride=(1, 1), padding=same)
          (1): ReLU(inplace=True)
          (2): Conv2d(128, 128, kernel_size=(6, 6), stride=(1, 1), padding=same)
        )
        (shortcut): Sequential(
          (0): Conv2d(32, 128, kernel_size=(1, 1), stride=(1, 1), padding=same)
        )
      )
      (1): ResidualBlock(
        (left): Sequential(
          (0): Conv2d(128, 128, kernel_size=(6, 6), stride=(1, 1), padding=same)
          (1): ReLU(inplace=True)
          (2): Conv2d(128, 128, kernel_size=(6, 6), stride=(1, 1), padding=same)
        )
        (shortcut): Sequential()
      )
    )
    (5): MaxPool2d(kernel_size=2, stride=2, padding=0, dilation=1, ceil_mode=False)
    (6): Sequential(
      (0): ResidualBlock(
        (left): Sequential(
          (0): Conv2d(128, 256, kernel_size=(6, 6), stride=(1, 1), padding=same)
          (1): ReLU(inplace=True)
          (2): Conv2d(256, 256, kernel_size=(6, 6), stride=(1, 1), padding=same)
        )
        (shortcut): Sequential(
          (0): Conv2d(128, 256, kernel_size=(1, 1), stride=(1, 1), padding=same)
        )
      )
      (1): ResidualBlock(
        (left): Sequential(
          (0): Conv2d(256, 256, kernel_size=(6, 6), stride=(1, 1), padding=same)
          (1): ReLU(inplace=True)
          (2): Conv2d(256, 256, kernel_size=(6, 6), stride=(1, 1), padding=same)
        )
        (shortcut): Sequential()
      )
    )
    (7): MaxPool2d(kernel_size=2, stride=2, padding=0, dilation=1, ceil_mode=False)
    (8): Dropout(p=0.1, inplace=False)
  )
  (linear1): Linear(in_features=20736, out_features=512, bias=True)
  (linear2): Linear(in_features=512, out_features=32, bias=True)
  (linear3): Linear(in_features=512, out_features=128, bias=True)
  (linear4): Linear(in_features=128, out_features=32, bias=True)
  (_output): Linear(in_features=32, out_features=3, bias=True)
)
Send the model to cuda
VALIDATION:   kappa = 1.05000     | val loss= 0.927, val acc= 59.03% |
Epoch 1: val_loss improved from inf to 0.9270, saving model to/home/samhuang/ML/best_model/best_model_ternary_CNN2_kappa0.23_fiximag/Try/0
VALIDATION:   kappa = 1.05000     | val loss= 0.821, val acc= 62.79% |
Epoch 2: val_loss improved from 0.9270 to 0.8215, saving model to/home/samhuang/ML/best_model/best_model_ternary_CNN2_kappa0.23_fiximag/Try/0
…
