…
Epoch 00032: val_loss did not improve from 0.46082
Epoch 33/500
281/281 [==============================] - 59s 211ms/step - loss: 0.3403 - accuracy: 0.8769 - val_loss: 0.6015 - val_accuracy: 0.7620

Epoch 00033: val_loss did not improve from 0.46082
Epoch 00033: early stopping
$$$$$$$$$$$$$$$$$$$$$$$$$$$$$$$$$$$$
$$$$$$$$$$$$$$$$$$$$$$$$$$$$$$$$$$$$
$$$$$$$$$$$$$$$$$$$$$$$$$$$$$$$$$$$$
Model: "CNN_binary"
_________________________________________________________________
Layer (type)                 Output Shape              Param #   
=================================================================
sequential (Sequential)      (None, 512)               12127912  
_________________________________________________________________
dense_2 (Dense)              multiple                  1026      
=================================================================
Total params: 12,128,938
Trainable params: 12,128,934
Non-trainable params: 4
_________________________________________________________________
[93mNone[0m
@LAYER1       @@@@@@@@@@@@@@@@@@@@@@
Model: "sequential"
_________________________________________________________________
Layer (type)                 Output Shape              Param #   
=================================================================
lambda (Lambda)              (None, 75, 75, 2)         0         
_________________________________________________________________
batch_normalization (BatchNo (None, 75, 75, 2)         8         
_________________________________________________________________
conv2d (Conv2D)              (None, 75, 75, 32)        2336      
_________________________________________________________________
max_pooling2d (MaxPooling2D) (None, 37, 37, 32)        0         
_________________________________________________________________
conv2d_1 (Conv2D)            (None, 37, 37, 128)       65664     
_________________________________________________________________
max_pooling2d_1 (MaxPooling2 (None, 18, 18, 128)       0         
_________________________________________________________________
conv2d_2 (Conv2D)            (None, 18, 18, 256)       1179904   
_________________________________________________________________
max_pooling2d_2 (MaxPooling2 (None, 9, 9, 256)         0         
_________________________________________________________________
dropout (Dropout)            (None, 9, 9, 256)         0         
_________________________________________________________________
flatten (Flatten)            (None, 20736)             0         
_________________________________________________________________
dense (Dense)                (None, 512)               10617344  
_________________________________________________________________
dropout_1 (Dropout)          (None, 512)               0         
_________________________________________________________________
dense_1 (Dense)              (None, 512)               262656    
_________________________________________________________________
dropout_2 (Dropout)          (None, 512)               0         
=================================================================
Total params: 12,127,912
Trainable params: 12,127,908
Non-trainable params: 4
_________________________________________________________________
None
{'name': 'sequential', 'layers': [{'class_name': 'InputLayer', 'config': {'batch_input_shape': (None, 75, 75, 2), 'dtype': 'float32', 'sparse': False, 'ragged': False, 'name':
…
