…
83/83 [==============================] - 6s 72ms/step - loss: 1.4756 - accuracy: 0.4264 - val_loss: 1.5881 - val_accuracy: 0.3706

Epoch 00040: val_loss did not improve from 1.56201
Epoch 00040: early stopping
$$$$$$$$$$$$$$$$$$$$$$$$$$$$$$$$$$$$$$$$$$$$$$$$$$$$$$
$$$$$$$$$$$$$$$$$$$$$$$$$$$$$$$$$$$$$$$$$$$$$$$$$$$$$$
[92mModel: "CNN_4jet"[0m
[92m_________________________________________________________________[0m
[92mLayer (type)                 Output Shape              Param #   [0m
[92m=================================================================[0m
[92msequential (Sequential)      (None, 512)               3608232   [0m
[92m_________________________________________________________________[0m
[92msequential_1 (Sequential)    (None, 512)               3608232   [0m
[92m_________________________________________________________________[0m
[92msequential_2 (Sequential)    (None, 512)               3608232   [0m
[92m_________________________________________________________________[0m
[92msequential_3 (Sequential)    (None, 512)               3608232   [0m
[92m_________________________________________________________________[0m
[92mdense_8 (Dense)              multiple                  12294     [0m
[92m=================================================================[0m
[92mTotal params: 14,445,222[0m
[92mTrainable params: 14,445,206[0m
[92mNon-trainable params: 16[0m
[92m_________________________________________________________________[0m
None

@LAYER1       @@@@@@@@@@@@@@@@@@@@@@
[94mModel: "sequential"[0m
[94m_________________________________________________________________[0m
[94mLayer (type)                 Output Shape              Param #   [0m
[94m=================================================================[0m
[94mlambda (Lambda)              (None, 37, 37, 2)         0         [0m
[94m_________________________________________________________________[0m
[94mbatch_normalization (BatchNo (None, 37, 37, 2)         8         [0m
[94m_________________________________________________________________[0m
[94mconv2d (Conv2D)              (None, 37, 37, 32)        2336      [0m
[94m_________________________________________________________________[0m
[94mmax_pooling2d (MaxPooling2D) (None, 18, 18, 32)        0         [0m
[94m_________________________________________________________________[0m
[94mconv2d_1 (Conv2D)            (None, 18, 18, 128)       65664     [0m
[94m_________________________________________________________________[0m
[94mmax_pooling2d_1 (MaxPooling2 (None, 9, 9, 128)         0         [0m
[94m_________________________________________________________________[0m
[94mconv2d_2 (Conv2D)            (None, 9, 9, 256)         1179904   [0m
[94m_________________________________________________________________[0m
[94mmax_pooling2d_2 (MaxPooling2 (None, 4, 4, 256)         0         [0m
[94m_________________________________________________________________[0m
[94mdropout (Dropout)            (None, 4, 4, 256)         0         [0m
[94m_________________________________________________________________[0m
[94mflatten (Flatten)            (None, 4096)              0         [0m
[94m_________________________________________________________________[0m
[94mdense (Dense)                (None, 512)               2097664   [0m
[94m_________________________________________________________________[0m
[94mdropout_1 (Dropout)          (None, 512)               0         [0m
[94m_________________________________________________________________[0m
[94mdense_1 (Dense)              (None, 512)               262656    [0m
[94m_________________________________________________________________[0m
[94mdropout_2 (Dropout)          (None, 512)               0         [0m
[94m=================================================================[0m
[94mTotal params: 3,608,232[0m
[94mTrainable params: 3,608,228[0m
[94mNon-trainable params: 4[0m
[94m_________________________________________________________________[0m
None
[92m%Optimizer:
[0m {'name': 'Adam', 'learning_rate': 1e-04, 'decay': 0.0, 'beta_1': 0.9, 'beta_2': 0.999, 'epsilon': 1e-07, 'amsgrad': False}
…
9776482582}}, 'bias_regularizer': None, 'activity_regularizer': None, 'kernel_constraint': None, 'bias_constraint': None}}, {'class_name': 'Dropout', 'config': {'name': 'dropout_2', 'trainable': True, 'dtype': 'float32', 'rate': 0.5, 'noise_shape': None, 'seed': None}}]}

@LAYER2       @@@@@@@@@@@@@@@@@@@@@@
[94mModel: "sequential_1"[0m
[94m_________________________________________________________________[0m
[94mLayer (type)                 Output Shape              Param #   [0m
[94m=================================================================[0m
[94mlambda_1 (Lambda)            (None, 37, 37, 2)         0         [0m
[94m_________________________________________________________________[0m
[94mbatch_normalization_1 (Batch (None, 37, 37, 2)         8         [0m
[94m_________________________________________________________________[0m
[94mconv2d_3 (Conv2D)            (None, 37, 37, 32)        2336      [0m
[94m_________________________________________________________________[0m
[94mmax_pooling2d_3 (MaxPooling2 (None, 18, 18, 32)        0         [0m
[94m_________________________________________________________________[0m
[94mconv2d_4 (Conv2D)            (None, 18, 18, 128)       65664     [0m
[94m_________________________________________________________________[0m
[94mmax_pooling2d_4 (MaxPooling2 (None, 9, 9, 128)         0         [0m
[94m_________________________________________________________________[0m
[94mconv2d_5 (Conv2D)            (None, 9, 9, 256)         1179904   [0m
[94m_________________________________________________________________[0m
[94mmax_pooling2d_5 (MaxPooling2 (None, 4, 4, 256)         0         [0m
[94m_________________________________________________________________[0m
[94mdropout_3 (Dropout)          (None, 4, 4, 256)         0         [0m
[94m_________________________________________________________________[0m
[94mflatten_1 (Flatten)          (None, 4096)              0         [0m
[94m_________________________________________________________________[0m
[94mdense_2 (Dense)              (None, 512)               2097664   [0m
[94m_________________________________________________________________[0m
[94mdropout_4 (Dropout)          (None, 512)               0         [0m
[94m_________________________________________________________________[0m
[94mdense_3 (Dense)              (None, 512)               262656    [0m
[94m_________________________________________________________________[0m
[94mdropout_5 (Dropout)          (None, 512)               0         [0m
[94m=================================================================[0m
[94mTotal params: 3,608,232[0m
[94mTrainable params: 3,608,228[0m
[94mNon-trainable params: 4[0m
[94m_________________________________________________________________[0m
None
[92m%Optimizer:
[0m {'name': 'Adam', 'learning_rate': 1e-04, 'decay': 0.0, 'beta_1': 0.9, 'beta_2': 0.999, 'epsilon': 1e-07, 'amsgrad': False}
…
